model/saved_model.pt (torch, 4080 bytes, 5 tensors)

linear_layer_stack.0.weight f4 [8, 30]
0.08004115 0.15468265 0.12402565 -0.23198982 -0.5095358 0.357931 -0.39261654 -0.14067581
0.010803651 0.13678114 -0.49614027 0.3641924 -0.4702358 -0.52594453 0.1968945 0.25012094
-0.0071487026 -0.14658402 0.25114495 0.21175665 -0.37837443 -0.21050985 -0.07533809 -0.33086297
-0.50359976 0.15029547 -0.29616496 -0.17097917 -0.2419938 -0.024816507 -0.211234 -0.5936785
0.029881349 0.03989108 0.17558733 0.070302755 -0.16464476 -0.18188278 -0.23007847 0.023818232
-0.40807712 -0.24791072 -0.39110076 -0.43011224 0.1684761 0.22904795 0.12169723 0.026292719
0.1767928 0.33868435 -0.01174641 -0.62897736 -0.080372974 -0.32796356 -0.19363879 0.11748002
-0.12501287 -0.14389813 -0.29957744 -0.1855597 -0.09341394 0.015726108 0.111925855 0.0637492
0.32711166 0.3640567 0.26371703 0.11258724 0.144143 0.2794946 -0.1629984 -0.023385104
0.001395493 -0.0060491036 -0.33148384 0.45017758 0.54686695 0.41155136 -0.43641815 0.27716663
-0.19397418 -0.152966 0.018497327 0.02886612 0.5095403 0.11693408 0.100605145 -0.008474318
-0.09554004 0.5298456 0.52235335 0.42545196 0.47578922 0.21733326 0.30604616 0.08240223
0.5261348 0.24572344 0.06277097 -0.029644702 0.62552464 -0.11392128 0.37005705 0.55500054
0.41645172 -0.43255696 0.25747013 0.4476828 -0.03690429 -0.5523722 0.4000466 0.42733273
0.41910636 0.34281698 0.41349408 0.23012355 0.50243074 0.23895778 0.5555484 0.038048293
0.36819685 0.3767319 0.6638468 0.52738917 0.45989722 0.4221111 0.68004966 0.70885926
0.07847692 -0.3792765 0.6992325 -0.32529137 0.56841093 0.54509795 0.30879757 -0.4540732
0.2744617 0.6813381 0.103736565 -0.73184466 0.48684296 0.41517192 0.39943087 0.6598758
0.5971478 0.20859772 0.5790377 0.69338316 0.52915215 0.22521897 0.20682994 0.47829995
0.30649686 0.07187537 0.17388766 -0.33540276 0.27645075 0.24948996 0.040751647 -0.2955312
0.4927791 -0.49024934 0.046563312 0.20877023 -0.21984255 -0.61339784 -0.2944855 -0.445692
-0.53023285 -0.5602955 0.40128657 0.40854868 0.37385368 0.3425493 0.56811935 0.058782823
0.610937 0.39274362 0.66784173 0.165672 -0.26131058 -0.4722854 -0.3286865 -0.03214514
0.21355285 0.19537681 -0.2526515 -0.019065686 0.19242522 0.1398256 -0.3318744 -0.82649136
-0.23895611 -0.2615645 0.49220398 0.03482585 0.07909536 -0.19612585 0.19118173 0.024710877
-0.39447486 -0.6255784 -0.13737276 -0.39344504 0.00015725009 0.08979933 -0.27992886 -0.27244464
-0.13031705 -0.23648249 0.04062185 -0.19998603 -0.17296538 -0.27298224 -0.20894861 0.14053768
0.01409706 0.009383721 0.037246414 0.184549 -0.36278984 -0.47554156 -0.194885 -0.31364566
0.032090425 0.5044016 0.064874314 0.031916108 0.15200442 0.33129963 -0.21434157 -0.33040285
-0.32093257 -0.4245282 -0.21956953 0.16671823 -0.23189333 -0.28826603 -0.15136093 0.13986972
00000000: 9dec a33d 2165 1e3e 2901 fe3d bd8e 6dbe
00000010: f070 02bf bb42 b73e 0905 c9be 520d 10be
00000020: cc01 313c 5b10 0c3e 1906 febe 6d77 ba3e
00000030: bfc2 f0be 4da4 06bf b69e 493e da0f 803e
00000040: aa3f eabb 1f1a 16be 1296 803e bcd6 583e
00000050: 4bba c1be e58f 57be db4a 9abd df66 a9be
00000060: eaeb 00bf 0ee7 193e efa2 97be 2a15 2fbe
00000070: 39cd 77be fd4b cbbc ba4d 58be 50fb 17bf
00000080: bbc9 f43c d464 233d 2acd 333e e4fa 8f3d
00000090: a398 28be 7b3f 3abe b199 6bbe 741e c33c
000000a0: 7cef d0be 4fdc 7dbe 5c3e c8be ac37 dcbe
000000b0: 0085 2c3e 8c8b 6a3e 663c f93d d463 d73c
000000c0: 2c09 353e 0968 ad3e 0474 40bc a904 21bf
000000d0: 969a a4bd d7ea a7be 3f49 46be 5d99 f03d
000000e0: 6003 00be 085a 13be 3762 99be 5d03 3ebe
000000f0: cf4f bfbd 0ad4 803c 6239 e53d f18e 823d
00000100: 2e7b a73e a465 ba3e eb05 873e 2494 e63d
00000110: 399a 133e eb19 8f3e 0de9 26be 1e92 bfbc
00000120: fae8 b63a 8f37 c6bb 40b8 a9be ad7d e63e
00000130: 79ff 0b3f dcb6 d23e 3372 dfbe c9e8 8d3e
00000140: 2ba1 46be 1ea3 1cbe b587 973c a478 ec3c
00000150: 3c71 023f 237b ef3d 120a ce3d ded7 0abc
00000160: 7faa c3bd f6a3 073f f3b8 053f d7d4 d93e
00000170: a59a f33e 9c8c 5e3e 15b2 9c3e 80c2 a83d
00000180: c5b0 063f ed9e 7b3e 118e 803d 72d9 f2bc
00000190: 6222 203f 8f4f e9bd 1e78 bd3e 8414 0e3f
000001a0: 2939 d53e 1b78 ddbe 20d3 833e ae36 e53e
000001b0: f428 17bd 4468 0dbf e8d2 cc3e 5bcb da3e
000001c0: 1c95 d63e b585 af3e 7fb5 d33e 82a5 6b3e
000001d0: 4d9f 003f 59b1 743e 6c38 0e3f 87d8 1b3d
000001e0: 4c84 bc3e 01e3 c03e ddf1 293f fa02 073f
000001f0: a677 eb3e f21e d83e bc17 2e3f cd77 353f
00000200: 82b8 a03d 8830 c2be e700 333f 978c a6be
00000210: 6183 113f 8a8b 0b3f b71a 9e3e 487c e8be
00000220: 3e86 8c3e 2c6c 2e3f d673 d43d 2c5a 3bbf
00000230: 7b43 f93e 6a91 d43e 3482 cc3e 9fed 283f
00000240: aede 183f a49a 553e d13b 143f 8f81 313f
00000250: 8476 073f cd9f 663e 3acb 533e bbe3 f43e
00000260: 28ed 9c3e 6533 933d 9b0f 323e e9b9 abbe
00000270: f48a 8d3e 4c7a 7f3e 33eb 263d de4f 97be
00000280: 8b4d fc3e f601 fbbe 2cb9 3e3d ddc7 553e
00000290: 681e 61be a407 1dbf cec6 96be be31 e4be
000002a0: 57bd 07bf 876f 0fbf 6f75 cd3e 4b2d d13e
000002b0: c069 bf3e 9f62 af3e 4570 113f 42c6 703d
000002c0: 5e66 1c3f b115 c93e adf7 2a3f eca5 293e
000002d0: 80ca 85be 64cf f1be 9949 a8be 9faa 03bd
000002e0: 99ad 5a3e dc10 483e 8a5b 81be a42f 9cbc
000002f0: 1e0b 453e 712e 0f3e 71eb a9be f094 53bf
00000300: e9b0 74be c8eb 85be 2902 fc3e 8da5 0e3d
00000310: c0fc a13d 37d5 48be 25c5 433e 776e ca3c
00000320: 9cf8 c9be e825 20bf 72ab 0cbe a171 c9be
00000330: 80e3 2439 b6e8 b73d d652 8fbe dd7d 8bbe
00000340: d571 05be 7728 72be 1963 263d 23c9 4cbe
00000350: d61d 31be 54c4 8bbe a0f6 55be 1ce9 0f3e
00000360: 5bf7 663c 2ebe 193c b28f 183d 6afa 3c3e
00000370: 97bf b9be 2f7a f3be ef8f 47be 2a96 a0be
00000380: 4071 033d 7720 013f d3dc 843d 77ba 023d
00000390: 0ca7 1b3e 1ba0 a93e 5b7c 5bbe 902a a9be
000003a0: 4651 a4be c35b d9be d6d6 60be 2fb8 2a3e
000003b0: 7275 6dbe 9b97 93be 5cfe 1abe 023a 0f3e

linear_layer_stack.0.bias f4 [8]
0.4871199 0.4342481 0.22071274 0.47060636 0.38766417 0.5739158 0.31493863 0.492792
00000000: c867 f93e c455 de3e 8502 623e 51f3 f03e
00000010: eb7b c63e 25ec 123f a33f a13e 3c4f fc3e

linear_layer_stack.2.weight f4 [8, 8]
0.48343343 0.25975177 0.10040768 -0.4434266 -0.19637437 -0.38455048 0.25149548 0.23001629
0.6050535 0.230719 0.09797989 -0.42671844 -0.14587097 -0.38970956 0.4940727 0.062248576
-0.41524976 -0.8723266 0.7074829 0.6851526 0.71045953 0.6598353 0.3815476 -0.2681541
-0.34691226 -0.37323105 -0.21771045 -0.061568003 -0.13689496 0.06439822 -0.10031435 -0.021291107
0.242689 0.3181015 0.16627918 -0.103225954 -0.50408703 -0.052885015 0.5237853 0.4260331
0.51287 0.095610626 0.43674254 -0.5646154 -0.3195023 -0.4988563 0.47212967 0.44804212
0.2469234 0.48618826 0.39084333 -0.69710267 -0.19441679 -0.3825889 0.3844424 0.47711354
-0.34255433 -0.17624296 -0.045501165 -0.39339212 -0.0181214 -0.102333486 -0.3325103 0.27068934
00000000: 9684 f73e 2ffe 843e 8ba2 cd3d d008 e3be
00000010: 5d16 49be cde3 c4be 04c4 803e 6489 6b3e
00000020: c9e4 1a3f 9a41 6c3e aea9 c83d d77a dabe
00000030: 335f 15be 0388 c7be 19f7 fc3e 5df8 7e3d
00000040: 9e9b d4be cc50 5fbf 991d 353f 2966 2f3f
00000050: ade0 353f f7ea 283f 355a c33e 7f4b 89be
00000060: 7c9e b1be 2418 bfbe 7def 5ebe bb2e 7cbd
00000070: 312e 0cbe 37e3 833d 9c71 cdbd b06a aebc
00000080: 7783 783e 33de a23e 1745 2a3e 2168 d3bd
00000090: d90b 01bf f59d 58bd cb16 063f 0321 da3e
000000a0: 734b 033f 81cf c33d b89c df3e a38a 10bf
000000b0: ce95 a3be 186a ffbe fbba f13e c765 e53e
000000c0: 7dd9 7c3e abed f83e 9e1c c83e 5275 32bf
000000d0: 3215 47be b1e2 c3be a2d5 c43e 3a48 f43e
000000e0: 4863 afbe 0979 34be 6e5f 3abd b16a c9be
000000f0: 5573 94bc 3894 d1bd ca3e aabe cb97 8a3e

linear_layer_stack.2.bias f4 [8]
0.5426807 0.27991652 0.39661053 -0.45096874 0.16857089 0.742718 0.6025528 -0.17708729
00000000: 1fed 0a3f 3851 8f3e 8910 cb3e 60e5 e6be
00000010: d99d 2c3e c422 3e3f e640 1a3f 5f56 35be

linear_layer_stack.4.weight f4 [1, 8]
-0.63481086 -0.42233452 0.5867292 -0.17937113 -0.44758737 -0.33348468 -0.61178 0.07089638
00000000: f782 22bf 3b3c d8be e333 163f 11ad 37be
00000010: 2c2a e5be 81be aabe 9d9d 1cbf 1f32 913d
